trained/ai84-mnist-extrasmallnet.pth.tar (torch_old, 22243 bytes, 10 tensors)

conv1.conv2d.weight f4 [8, 1, 3, 3]
00000000: 0000 f841 0000 30c1 0000 04c2 0000 9841
00000010: 0000 7041 0000 40c1 0000 8040 0000 9841
00000020: 0000 1842 0000 60c1 0000 c0c0 0000 d041
00000030: 0000 40c1 0000 0041 0000 1041 0000 1041
00000040: 0000 2041 0000 a0c0 0000 6041 0000 8841
00000050: 0000 8040 0000 3041 0000 8041 0000 a040
00000060: 0000 2041 0000 8841 0000 803f 0000 0080
00000070: 0000 b041 0000 00c0 0000 e841 0000 00c1
00000080: 0000 90c1 0000 0042 0000 20c1 0000 40c1
00000090: 0000 80c1 0000 a8c1 0000 60c1 0000 8040
000000a0: 0000 1041 0000 1442 0000 d041 0000 5041
000000b0: 0000 a040 0000 a841 0000 7041 0000 803f
000000c0: 0000 70c1 0000 6041 0000 7041 0000 88c1
000000d0: 0000 40c1 0000 3041 0000 7041 0000 7041
000000e0: 0000 5041 0000 8040 0000 0040 0000 80bf
000000f0: 0000 30c1 0000 88c1 0000 80c1 0000 10c1
00000100: 0000 a0c0 0000 80c0 0000 a0c0 0000 a0c0
00000110: 0000 00c1 0000 80bf 0000 40c0 0000 c0c0
31.0 -11.0 -33.0 19.0 15.0 -12.0 4.0 19.0
38.0 -14.0 -6.0 26.0 -12.0 8.0 9.0 9.0
10.0 -5.0 14.0 17.0 4.0 11.0 16.0 5.0
10.0 17.0 1.0 -0.0 22.0 -2.0 29.0 -8.0
-18.0 32.0 -10.0 -12.0 -16.0 -21.0 -14.0 4.0
9.0 37.0 26.0 13.0 5.0 21.0 15.0 1.0
-15.0 14.0 15.0 -17.0 -12.0 11.0 15.0 15.0
13.0 4.0 2.0 -1.0 -11.0 -17.0 -16.0 -9.0
-5.0 -4.0 -5.0 -5.0 -8.0 -1.0 -3.0 -6.0

conv2.conv2d.weight f4 [8, 8, 3, 3]
00000000: 0000 0040 0000 20c1 0000 50c1 0000 8c42
00000010: 0000 803f 0000 34c2 0000 1442 0000 40c2
00000020: 0000 00c1 0000 60c1 0000 9041 0000 2c42
00000030: 0000 60c1 0000 80c0 0000 a040 0000 5cc2
00000040: 0000 3cc2 0000 e0c0 0000 3041 0000 3041
00000050: 0000 80bf 0000 1041 0000 d841 0000 4040
00000060: 0000 64c2 0000 86c2 0000 f8c1 0000 4cc2
00000070: 0000 c841 0000 a0c1 0000 ccc2 0000 80c0
00000080: 0000 a040 0000 70c2 0000 90c2 0000 9cc2
00000090: 0000 c0c0 0000 c841 0000 4442 0000 30c2
000000a0: 0000 80c0 0000 0080 0000 b041 0000 8841
000000b0: 0000 0042 0000 a040 0000 2041 0000 28c2
000000c0: 0000 c841 0000 4842 0000 c8c1 0000 1c42
000000d0: 0000 80bf 0000 74c2 0000 14c2 0000 e040
000000e0: 0000 1842 0000 40c2 0000 40c0 0000 7442
000000f0: 0000 70c2 0000 5842 0000 c8c1 0000 a040
00000100: 0000 a0c0 0000 c0c1 0000 10c1 0000 7041
00000110: 0000 40c2 0000 a8c1 0000 0041 0000 5041
00000120: 0000 80c0 0000 c041 0000 80bf 0000 8c42
00000130: 0000 0000 0000 6041 0000 a040 0000 c041
00000140: 0000 2442 0000 c040 0000 803f 0000 6041
00000150: 0000 1041 0000 0842 0000 6042 0000 44c2
00000160: 0000 1cc2 0000 8041 0000 f8c1 0000 3041
00000170: 0000 10c2 0000 c0c1 0000 88c1 0000 20c1
00000180: 0000 3cc2 0000 d8c1 0000 9cc2 0000 d841
00000190: 0000 f0c1 0000 e041 0000 e0c0 0000 14c2
000001a0: 0000 a0c1 0000 2842 0000 1cc2 0000 88c1
000001b0: 0000 803f 0000 8841 0000 40c2 0000 a841
000001c0: 0000 3042 0000 3c42 0000 b841 0000 e841
000001d0: 0000 c0c1 0000 00c2 0000 0041 0000 2442
000001e0: 0000 4041 0000 80bf 0000 a0c1 0000 e841
000001f0: 0000 b841 0000 0842 0000 f041 0000 d0c1
00000200: 0000 c0c0 0000 50c1 0000 8041 0000 98c1
00000210: 0000 0041 0000 6042 0000 6041 0000 1cc2
00000220: 0000 30c1 0000 88c1 0000 82c2 0000 98c1
00000230: 0000 20c1 0000 bec2 0000 0cc2 0000 acc2
00000240: 0000 a040 0000 b8c1 0000 a040 0000 3041
00000250: 0000 10c1 0000 a0c0 0000 7041 0000 f242
00000260: 0000 e040 0000 0442 0000 f041 0000 4041
00000270: 0000 4041 0000 3442 0000 2041 0000 70c1
00000280: 0000 10c2 0000 1442 0000 8040 0000 d0c1
00000290: 0000 f8c1 0000 4041 0000 e0c0 0000 f841
000002a0: 0000 d0c1 0000 e0c0 0000 08c2 0000 4041
000002b0: 0000 6041 0000 30c1 0000 00c0 0000 9041
000002c0: 0000 0041 0000 c041 0000 88c1 0000 c0c0
000002d0: 0000 80c0 0000 a040 0000 1442 0000 30c1
000002e0: 0000 40c0 0000 7041 0000 80c1 0000 30c2
000002f0: 0000 0042 0000 00c1 0000 7cc2 0000 50c1
00000300: 0000 50c1 0000 0080 0000 c041 0000 4040
00000310: 0000 2042 0000 f0c1 0000 e8c1 0000 3042
00000320: 0000 b041 0000 2cc2 0000 d041 0000 30c2
00000330: 0000 28c2 0000 4cc2 0000 3041 0000 24c2
00000340: 0000 c8c2 0000 88c2 0000 10c1 0000 38c2
00000350: 0000 00c0 0000 86c2 0000 b0c1 0000 0cc2
00000360: 0000 80c0 0000 1041 0000 58c2 0000 0000
00000370: 0000 3041 0000 6041 0000 b841 0000 c041
00000380: 0000 3842 0000 18c2 0000 86c2 0000 f0c1
00000390: 0000 80c0 0000 10c1 0000 20c2 0000 90c1
000003a0: 0000 80bf 0000 f0c1 0000 d0c1 0000 78c2
000003b0: 0000 7041 0000 8841 0000 2842 0000 80bf
000003c0: 0000 60c1 0000 50c1 0000 e0c0 0000 f2c2
000003d0: 0000 74c2 0000 4cc2 0000 a0c1 0000 10c1
000003e0: 0000 5041 0000 2041 0000 2041 0000 c8c1
000003f0: 0000 e841 0000 a841 0000 82c2 0000 0c42
2.0 -10.0 -13.0 70.0 1.0 -45.0 37.0 -48.0
-8.0 -14.0 18.0 43.0 -14.0 -4.0 5.0 -55.0
-47.0 -7.0 11.0 11.0 -1.0 9.0 27.0 3.0
-57.0 -67.0 -31.0 -51.0 25.0 -20.0 -102.0 -4.0
5.0 -60.0 -72.0 -78.0 -6.0 25.0 49.0 -44.0
-4.0 -0.0 22.0 17.0 32.0 5.0 10.0 -42.0
25.0 50.0 -25.0 39.0 -1.0 -61.0 -37.0 7.0
38.0 -48.0 -3.0 61.0 -60.0 54.0 -25.0 5.0
-5.0 -24.0 -9.0 15.0 -48.0 -21.0 8.0 13.0
-4.0 24.0 -1.0 70.0 0.0 14.0 5.0 24.0
41.0 6.0 1.0 14.0 9.0 34.0 56.0 -49.0
-39.0 16.0 -31.0 11.0 -36.0 -24.0 -17.0 -10.0
-47.0 -27.0 -78.0 27.0 -30.0 28.0 -7.0 -37.0
-20.0 42.0 -39.0 -17.0 1.0 17.0 -48.0 21.0
44.0 47.0 23.0 29.0 -24.0 -32.0 8.0 41.0
12.0 -1.0 -20.0 29.0 23.0 34.0 30.0 -26.0
-6.0 -13.0 16.0 -19.0 8.0 56.0 14.0 -39.0
-11.0 -17.0 -65.0 -19.0 -10.0 -95.0 -35.0 -86.0
5.0 -23.0 5.0 11.0 -9.0 -5.0 15.0 121.0
7.0 33.0 30.0 12.0 12.0 45.0 10.0 -15.0
-36.0 37.0 4.0 -26.0 -31.0 12.0 -7.0 31.0
-26.0 -7.0 -34.0 12.0 14.0 -11.0 -2.0 18.0
8.0 24.0 -17.0 -6.0 -4.0 5.0 37.0 -11.0
-3.0 15.0 -16.0 -44.0 32.0 -8.0 -63.0 -13.0
-13.0 -0.0 24.0 3.0 40.0 -30.0 -29.0 44.0
22.0 -43.0 26.0 -44.0 -42.0 -51.0 11.0 -41.0
-100.0 -68.0 -9.0 -46.0 -2.0 -67.0 -22.0 -35.0
-4.0 9.0 -54.0 0.0 11.0 14.0 23.0 24.0
46.0 -38.0 -67.0 -30.0 -4.0 -9.0 -40.0 -18.0
-1.0 -30.0 -26.0 -62.0 15.0 17.0 42.0 -1.0
-14.0 -13.0 -7.0 -121.0 -61.0 -51.0 -20.0 -9.0
13.0 10.0 10.0 -25.0 29.0 21.0 -65.0 35.0

conv3.conv2d.weight f4 [8, 8, 3, 3]
00000000: 0000 c8c1 0000 e040 0000 3842 0000 c0c0
00000010: 0000 b841 0000 60c1 0000 a0c1 0000 2cc2
00000020: 0000 5842 0000 b041 0000 a041 0000 0041
00000030: 0000 b0c1 0000 14c2 0000 e0c0 0000 e041
00000040: 0000 c040 0000 6041 0000 ac42 0000 2842
00000050: 0000 9041 0000 3041 0000 e8c1 0000 b041
00000060: 0000 40c0 0000 0042 0000 0442 0000 803f
00000070: 0000 4041 0000 1c42 0000 4041 0000 20c1
00000080: 0000 d841 0000 3842 0000 2442 0000 9041
00000090: 0000 40c0 0000 80c0 0000 00c0 0000 00c3
000000a0: 0000 74c2 0000 00c3 0000 e6c2 0000 0040
000000b0: 0000 a040 0000 7042 0000 9041 0000 a0c1
000000c0: 0000 a0c1 0000 e0c1 0000 8ac2 0000 e040
000000d0: 0000 0000 0000 c0c1 0000 e040 0000 a0c0
000000e0: 0000 0080 0000 c8c1 0000 b8c2 0000 34c2
000000f0: 0000 40c0 0000 e0c0 0000 1041 0000 30c1
00000100: 0000 e841 0000 2041 0000 2442 0000 98c1
00000110: 0000 1041 0000 e0c1 0000 6041 0000 5842
00000120: 0000 b841 0000 8c42 0000 7442 0000 c0c0
00000130: 0000 1cc2 0000 78c2 0000 e040 0000 80bf
00000140: 0000 f841 0000 0041 0000 0041 0000 50c1
00000150: 0000 a841 0000 0cc2 0000 d0c1 0000 0442
00000160: 0000 f041 0000 a841 0000 0442 0000 78c2
00000170: 0000 30c1 0000 c841 0000 c040 0000 a841
00000180: 0000 6842 0000 9c42 0000 8c42 0000 44c2
00000190: 0000 9041 0000 88c2 0000 b041 0000 2842
000001a0: 0000 6042 0000 24c2 0000 f041 0000 9e42
000001b0: 0000 70c1 0000 1cc2 0000 c0c1 0000 b041
000001c0: 0000 4041 0000 a8c1 0000 10c1 0000 8040
000001d0: 0000 f0c1 0000 e040 0000 90c1 0000 00c2
000001e0: 0000 98c1 0000 10c1 0000 3842 0000 50c1
000001f0: 0000 b0c1 0000 3041 0000 4c42 0000 70c1
00000200: 0000 803f 0000 60c1 0000 88c1 0000 8041
00000210: 0000 00c0 0000 70c1 0000 20c1 0000 e040
00000220: 0000 803f 0000 0c42 0000 90c1 0000 c4c2
00000230: 0000 a2c2 0000 a041 0000 a841 0000 2042
00000240: 0000 80c1 0000 6c42 0000 8a42 0000 00c0
00000250: 0000 d841 0000 a040 0000 30c1 0000 40c0
00000260: 0000 8041 0000 c0c0 0000 e040 0000 7041
00000270: 0000 08c2 0000 1041 0000 d8c1 0000 00c0
00000280: 0000 30c1 0000 0000 0000 0040 0000 a8c1
00000290: 0000 0cc2 0000 96c2 0000 a2c2 0000 b2c2
000002a0: 0000 20c1 0000 3cc2 0000 78c2 0000 3041
000002b0: 0000 a0c0 0000 88c1 0000 0040 0000 b041
000002c0: 0000 6042 0000 1442 0000 3041 0000 d841
000002d0: 0000 b841 0000 8040 0000 20c1 0000 bcc2
000002e0: 0000 44c2 0000 f842 0000 9c42 0000 48c2
000002f0: 0000 d642 0000 8040 0000 30c1 0000 a0c1
00000300: 0000 e0c1 0000 c8c1 0000 6cc2 0000 c8c1
00000310: 0000 b0c1 0000 70c1 0000 b0c1 0000 b8c1
00000320: 0000 e0c0 0000 20c2 0000 c8c1 0000 6842
00000330: 0000 b0c1 0000 10c1 0000 6041 0000 803f
00000340: 0000 3041 0000 9841 0000 a0c0 0000 10c1
00000350: 0000 5041 0000 30c1 0000 3cc2 0000 8841
00000360: 0000 c0c0 0000 e040 0000 50c2 0000 a0c1
00000370: 0000 38c2 0000 d2c2 0000 0040 0000 10c2
00000380: 0000 00c1 0000 82c2 0000 e0c0 0000 a8c1
00000390: 0000 00c3 0000 00c3 0000 10c2 0000 c8c1
000003a0: 0000 a040 0000 40c0 0000 b0c2 0000 00c3
000003b0: 0000 10c2 0000 38c2 0000 68c2 0000 d8c1
000003c0: 0000 f0c1 0000 80c0 0000 8041 0000 4041
000003d0: 0000 f841 0000 2041 0000 0cc2 0000 9ac2
000003e0: 0000 68c2 0000 e0c0 0000 78c2 0000 80bf
000003f0: 0000 40c0 0000 60c1 0000 8841 0000 50c1
-25.0 7.0 46.0 -6.0 23.0 -14.0 -20.0 -43.0
54.0 22.0 20.0 8.0 -22.0 -37.0 -7.0 28.0
6.0 14.0 86.0 42.0 18.0 11.0 -29.0 22.0
-3.0 32.0 33.0 1.0 12.0 39.0 12.0 -10.0
27.0 46.0 41.0 18.0 -3.0 -4.0 -2.0 -128.0
-61.0 -128.0 -115.0 2.0 5.0 60.0 18.0 -20.0
-20.0 -28.0 -69.0 7.0 0.0 -24.0 7.0 -5.0
-0.0 -25.0 -92.0 -45.0 -3.0 -7.0 9.0 -11.0
29.0 10.0 41.0 -19.0 9.0 -28.0 14.0 54.0
23.0 70.0 61.0 -6.0 -39.0 -62.0 7.0 -1.0
31.0 8.0 8.0 -13.0 21.0 -35.0 -26.0 33.0
30.0 21.0 33.0 -62.0 -11.0 25.0 6.0 21.0
58.0 78.0 70.0 -49.0 18.0 -68.0 22.0 42.0
56.0 -41.0 30.0 79.0 -15.0 -39.0 -24.0 22.0
12.0 -21.0 -9.0 4.0 -30.0 7.0 -18.0 -32.0
-19.0 -9.0 46.0 -13.0 -22.0 11.0 51.0 -15.0
1.0 -14.0 -17.0 16.0 -2.0 -15.0 -10.0 7.0
1.0 35.0 -18.0 -98.0 -81.0 20.0 21.0 40.0
-16.0 59.0 69.0 -2.0 27.0 5.0 -11.0 -3.0
16.0 -6.0 7.0 15.0 -34.0 9.0 -27.0 -2.0
-11.0 0.0 2.0 -21.0 -35.0 -75.0 -81.0 -89.0
-10.0 -47.0 -62.0 11.0 -5.0 -17.0 2.0 22.0
56.0 37.0 11.0 27.0 23.0 4.0 -10.0 -94.0
-49.0 124.0 78.0 -50.0 107.0 4.0 -11.0 -20.0
-28.0 -25.0 -59.0 -25.0 -22.0 -15.0 -22.0 -23.0
-7.0 -40.0 -25.0 58.0 -22.0 -9.0 14.0 1.0
11.0 19.0 -5.0 -9.0 13.0 -11.0 -47.0 17.0
-6.0 7.0 -52.0 -20.0 -46.0 -105.0 2.0 -36.0
-8.0 -65.0 -7.0 -21.0 -128.0 -128.0 -36.0 -25.0
5.0 -3.0 -88.0 -128.0 -36.0 -46.0 -58.0 -27.0
-30.0 -4.0 16.0 12.0 31.0 10.0 -35.0 -77.0
-58.0 -7.0 -62.0 -1.0 -3.0 -14.0 17.0 -13.0

fc.linear.weight f4 [10, 128]
00000000: 0000 2cc2 0000 90c1 0000 fe42 0000 5042
00000010: 0000 dac2 0000 a2c2 0000 60c1 0000 a041
00000020: 0000 60c2 0000 0080 0000 2842 0000 80bf
00000030: 0000 0042 0000 3c42 0000 4041 0000 e841
00000040: 0000 0042 0000 8041 0000 80bf 0000 34c2
00000050: 0000 1cc2 0000 7cc2 0000 fcc2 0000 f8c2
00000060: 0000 80c2 0000 10c2 0000 fec2 0000 fec2
00000070: 0000 d041 0000 c242 0000 a041 0000 bcc2
00000080: 0000 74c2 0000 d0c1 0000 3c42 0000 a040
00000090: 0000 0c42 0000 3041 0000 d841 0000 2cc2
000000a0: 0000 9841 0000 8cc2 0000 94c2 0000 e0c0
000000b0: 0000 b8c1 0000 96c2 0000 38c2 0000 3041
000000c0: 0000 a841 0000 38c2 0000 50c2 0000 44c2
000000d0: 0000 6842 0000 0842 0000 00c0 0000 803f
000000e0: 0000 f041 0000 1042 0000 d0c1 0000 b041
000000f0: 0000 0080 0000 80c2 0000 cec2 0000 40c0
00000100: 0000 b0c1 0000 e041 0000 80bf 0000 a8c1
00000110: 0000 8041 0000 14c2 0000 1041 0000 b0c1
00000120: 0000 4042 0000 40c1 0000 a041 0000 f041
00000130: 0000 9442 0000 88c1 0000 4041 0000 9841
00000140: 0000 80c0 0000 00c0 0000 4842 0000 1c42
00000150: 0000 00c1 0000 e0c0 0000 2041 0000 a0c0
00000160: 0000 4040 0000 d041 0000 c040 0000 c0c0
00000170: 0000 24c2 0000 a042 0000 3842 0000 c841
00000180: 0000 aac2 0000 e0c1 0000 4041 0000 90c1
00000190: 0000 fec2 0000 8040 0000 8040 0000 e0c1
000001a0: 0000 b6c2 0000 3041 0000 0040 0000 88c1
000001b0: 0000 f8c1 0000 3c42 0000 c242 0000 3c42
000001c0: 0000 78c2 0000 44c2 0000 48c2 0000 4041
000001d0: 0000 1041 0000 1842 0000 c8c1 0000 7842
000001e0: 0000 a042 0000 0842 0000 bec2 0000 38c2
000001f0: 0000 a0c0 0000 14c2 0000 fec2 0000 9ac2
00000200: 0000 60c1 0000 d0c1 0000 40c0 0000 2041
00000210: 0000 b041 0000 40c1 0000 88c1 0000 c841
00000220: 0000 f841 0000 8841 0000 b041 0000 1842
00000230: 0000 d8c1 0000 e841 0000 0442 0000 00c0
00000240: 0000 a040 0000 80bf 0000 24c2 0000 8ac2
00000250: 0000 60c1 0000 82c2 0000 08c2 0000 40c1
00000260: 0000 98c1 0000 08c2 0000 10c1 0000 9841
00000270: 0000 9041 0000 1442 0000 3c42 0000 c041
00000280: 0000 0041 0000 2041 0000 1c42 0000 1842
00000290: 0000 a0c0 0000 1442 0000 a041 0000 b841
000002a0: 0000 80bf 0000 b841 0000 1842 0000 4040
000002b0: 0000 80c1 0000 c0c1 0000 80bf 0000 00c0
000002c0: 0000 34c2 0000 8041 0000 0042 0000 40c0
000002d0: 0000 e041 0000 80bf 0000 2442 0000 a040
000002e0: 0000 c041 0000 4041 0000 7442 0000 3041
000002f0: 0000 2c42 0000 00c1 0000 90c1 0000 70c2
00000300: 0000 3041 0000 0040 0000 e041 0000 a0c1
00000310: 0000 b0c1 0000 60c1 0000 a041 0000 40c0
00000320: 0000 20c2 0000 0cc2 0000 08c2 0000 38c2
00000330: 0000 c8c1 0000 9041 0000 1cc2 0000 9ec2
00000340: 0000 a4c2 0000 1cc2 0000 8ec2 0000 f8c1
00000350: 0000 30c2 0000 92c2 0000 74c2 0000 80bf
00000360: 0000 40c0 0000 30c2 0000 30c1 0000 f841
00000370: 0000 e041 0000 20c2 0000 b0c1 0000 b0c1
00000380: 0000 a040 0000 3cc2 0000 5cc2 0000 20c2
00000390: 0000 a841 0000 00c1 0000 f8c1 0000 50c1
000003a0: 0000 7c42 0000 4042 0000 0040 0000 4040
000003b0: 0000 3041 0000 80c0 0000 4041 0000 4040
000003c0: 0000 60c2 0000 90c2 0000 04c2 0000 34c2
000003d0: 0000 c4c2 0000 7cc2 0000 2cc2 0000 8ec2
000003e0: 0000 8cc2 0000 60c1 0000 30c1 0000 f0c1
000003f0: 0000 e040 0000 00c0 0000 60c1 0000 5cc2
-43.0 -18.0 127.0 52.0 -109.0 -81.0 -14.0 20.0
-56.0 -0.0 42.0 -1.0 32.0 47.0 12.0 29.0
32.0 16.0 -1.0 -45.0 -39.0 -63.0 -126.0 -124.0
-64.0 -36.0 -127.0 -127.0 26.0 97.0 20.0 -94.0
-61.0 -26.0 47.0 5.0 35.0 11.0 27.0 -43.0
19.0 -70.0 -74.0 -7.0 -23.0 -75.0 -46.0 11.0
21.0 -46.0 -52.0 -49.0 58.0 34.0 -2.0 1.0
30.0 36.0 -26.0 22.0 -0.0 -64.0 -103.0 -3.0
-22.0 28.0 -1.0 -21.0 16.0 -37.0 9.0 -22.0
48.0 -12.0 20.0 30.0 74.0 -17.0 12.0 19.0
-4.0 -2.0 50.0 39.0 -8.0 -7.0 10.0 -5.0
3.0 26.0 6.0 -6.0 -41.0 80.0 46.0 25.0
-85.0 -28.0 12.0 -18.0 -127.0 4.0 4.0 -28.0
-91.0 11.0 2.0 -17.0 -31.0 47.0 97.0 47.0
-62.0 -49.0 -50.0 12.0 9.0 38.0 -25.0 62.0
80.0 34.0 -95.0 -46.0 -5.0 -37.0 -127.0 -77.0
-14.0 -26.0 -3.0 10.0 22.0 -12.0 -17.0 25.0
31.0 17.0 22.0 38.0 -27.0 29.0 33.0 -2.0
5.0 -1.0 -41.0 -69.0 -14.0 -65.0 -34.0 -12.0
-19.0 -34.0 -9.0 19.0 18.0 37.0 47.0 24.0
8.0 10.0 39.0 38.0 -5.0 37.0 20.0 23.0
-1.0 23.0 38.0 3.0 -16.0 -24.0 -1.0 -2.0
-45.0 16.0 32.0 -3.0 28.0 -1.0 41.0 5.0
24.0 12.0 61.0 11.0 43.0 -8.0 -18.0 -60.0
11.0 2.0 28.0 -20.0 -22.0 -14.0 20.0 -3.0
-40.0 -35.0 -34.0 -46.0 -25.0 18.0 -39.0 -79.0
-82.0 -39.0 -71.0 -31.0 -44.0 -73.0 -61.0 -1.0
-3.0 -44.0 -11.0 31.0 28.0 -40.0 -22.0 -22.0
5.0 -47.0 -55.0 -40.0 21.0 -8.0 -31.0 -13.0
63.0 48.0 2.0 3.0 11.0 -4.0 12.0 3.0
-56.0 -72.0 -33.0 -45.0 -98.0 -63.0 -43.0 -71.0
-70.0 -14.0 -11.0 -30.0 7.0 -2.0 -14.0 -55.0

fc.linear.bias f4 [10]
00000000: 0000 fec2 0000 fe42 0000 5cc2 0000 b4c2
00000010: 0000 aac2 0000 1442 0000 20c2 0000 e8c2
00000020: 0000 2cc2 0000 a242
-127.0 127.0 -55.0 -90.0 -85.0 37.0 -40.0 -116.0
-43.0 81.0

momentum_buffer f4 [8, 1, 3, 3]
00000000: 7a4b d9bc 3e93 6dbc d6b3 073d 9716 6dbd
00000010: a390 59bd 58e3 0b3d 2dac 98bd 587a 78bd
00000020: c792 5ebc fc93 bdbd 2f43 87bd 7899 6fbb
00000030: 53d1 13bc 5cb4 663d 1676 263d 326c a53d
00000040: 4c92 a63d 4e39 183c 0057 103d 5c9b 633d
00000050: 9884 79bb 11dc cc3c 8471 833d aebe 003c
00000060: 80ba 9abb 206d 5cba ca6f b0bc bc59 23bd
00000070: d79e 7dbd 8bfb 97bd 6012 e2bc fdef 93bd
00000080: 5823 5fbd 50ec 733d e405 bc3c 3a70 59bb
00000090: ab7c 89bc ce70 b5bc bb60 553c 10a2 2fbd
000000a0: 42a2 d13b d576 9a3c 974d 3bbd 0cc7 ebbc
000000b0: f811 06bd 5074 303b 42d0 23bd b2c0 26bd
000000c0: 8dd8 60bd ca43 60bd 2598 3bbd f316 ecbc
000000d0: 5bf3 82bd 7c33 ecbc d9b7 0bbd 613b afbd
000000e0: 68f4 ab3c f49f 83bc e1ae 4bbd d0b6 79bc
000000f0: 36fe 19bd 35db 21bd a806 25bd daaa 5dbd
00000100: 7d25 dabc 895d ebbc 635e 9abd 8f9f babd
00000110: 107b 89bd f9ff ddbd bb15 01be e405 94bd
-0.026525248 -0.014500437 0.03313049 -0.05788287 -0.053116452 0.03415236 -0.07454715 -0.06066355
-0.013584799 -0.092567414 -0.06604611 -0.003655998 -0.009022075 0.056324348 0.04063996 0.08077277
0.08133373 0.009291006 0.03523922 0.055568084 -0.0038073417 0.02500728 0.06418136 0.007857962
-0.0047219396 -0.0008408595 -0.02153768 -0.0398805 -0.06191906 -0.07421025 -0.027596653 -0.072235085
-0.054477066 0.059551537 0.022952028 -0.0033178465 -0.01678308 -0.022148516 0.013023551 -0.042879164
0.0063975165 0.018855492 -0.045728292 -0.028781436 -0.03273198 0.0026924796 -0.039993532 -0.040711112
-0.05489402 -0.05475215 -0.045799393 -0.028819537 -0.063940726 -0.028833143 -0.034110878 -0.085562475
0.020990565 -0.016067483 -0.049727324 -0.01524134 -0.03759595 -0.039515693 -0.04028955 -0.054118015
-0.026629204 -0.028731124 -0.07537534 -0.09112465 -0.067129254 -0.108398385 -0.12605946 -0.07227686

momentum_buffer f4 [8, 8, 3, 3]
00000000: fc7d 70bc af57 63bd 0a14 21bd 4ea9 9cbb
00000010: df70 1cbc 4803 c9bc d4c2 17bc 2d0e 87bc
00000020: 2c67 8abc 923e 0cbd 5c7c 9cbc 3cab bdbb
00000030: f7e5 60bc 2410 5cbc 7fdd 5a3c f81d 0fbc
00000040: 60ad 80b9 7873 4b3a 7f31 91bc 2b51 8bbd
00000050: 3409 71bd 65d6 d5bb 02ae dcbc 8317 53bc
00000060: 7a42 a3bb 22eb cabb f059 e7b9 13c8 e0bb
00000070: 632e c5bc fea8 53bd 3b6c a03b ff3d 93bc
00000080: fff8 cbbc 1113 22bb d6a9 8fbc c6a7 0fbc
00000090: be1c 6cbc ee4e 98bc d6d0 1ebc 6fdf 2d3b
000000a0: b505 483b b8d8 693a 8a74 f3bb c582 91bc
000000b0: 5296 a0bc a184 12bd e65e 77bd c809 63bc
000000c0: 0612 4fbc 4846 e6bc 1662 94bc a37c c4bb
000000d0: a30c 1abc 402c 67ba d55f dcbc e8da 06bd
000000e0: e22c f1bc 89e5 7fbc 1c44 2fbd 2615 15bd
000000f0: dccc 58bc 15a6 8ebc 3cc4 3cbc 52b3 3ebc
00000100: b331 e23b 52e6 7abc 70e7 b3bc ffaf 99bc
00000110: 8497 97bc 8ef5 eebc 6d37 01bd 6865 16bd
00000120: b67b e6bc e1af 6ebd a69c 37bd 2a84 acbc
00000130: f2d7 48bd 5cd6 90bd a46e a2bb 42b1 ddbc
00000140: c070 9abd b00c 96bc 48d6 cdbc 3dee 323c
00000150: a50a 00bd fef2 adbb d46d c63c d86b 2fbc
00000160: 9d72 98bc 2d9f 36bc a250 d1bc 2463 f7bc
00000170: ad93 bfbc bfe8 13bd 7407 2ebd 4073 15bd
00000180: d5b5 13bd b873 aabc d8ae d8bc 3d57 973a
00000190: fc67 12bb 128e 27bd 62e0 66bc cb8d 27bc
000001a0: 3e67 1ebd 48df ffbc e820 40ba fbab 18bd
000001b0: bd22 cfbc e7d7 40bd 40e4 11bc 9491 1fbd
000001c0: cae1 a7bb 1aa3 dbba ec81 683b 46e7 1a3c
000001d0: 8c5f 9b3a 6c95 47bc 11fe 57bc 8c09 1b3c
000001e0: 6f94 17bc 50c3 2cbd b904 a6bc 5bc1 24bc
000001f0: 5ab2 32bd 261d 22bd cb9c bfbb e0b8 ae3b
00000200: 59e2 68ba 999b 68bc 6b6e 1fbc 4446 c23b
00000210: f257 d9bc ae96 b7bc aa91 30bc b018 b3bc
00000220: 983b 74bc 6db3 acbc 77b6 26bc a656 ccbb
00000230: 2749 9dbc c103 4bbc eef6 14bc be6c 8e3a
00000240: 372f 0c3d e222 c7bb cc39 acbb a81a a9bb
00000250: 7ac0 05bd 1ccb b63c 1366 993c 2f58 ae3c
00000260: 75ee ee3c 8052 2d3a 656a a83a 26c7 943c
00000270: 06cd a7bc 85a7 9dbc 1813 2b3c 0785 bcbb
00000280: b8ff b5ba e0dd ef3c 367e 803c fb95 8bbc
00000290: 7575 113c d871 06bb 6097 f0bb 2c65 3b3c
000002a0: 8729 75bc 9e9e a8bb fa9e fc3c 7a57 d03c
000002b0: 5094 d0ba 005e 58bb e269 6b3c 2899 1f3c
000002c0: f070 693a 4078 a13b 585d a13b fe00 31bc
000002d0: 48e0 ff3c 6a23 0c3c 8b18 bd3c f946 5abc
000002e0: 3256 82bb abd6 003c e7a1 0ebc 147d 0c3d
000002f0: 14be 6d3d bad5 90bc e6eb a3bc e087 813c
00000300: e122 b33c 57a1 173c c940 9f3b 80d2 563c
00000310: ab74 7ebc 283a 96bb da2c d3bb e1e1 9c3c
00000320: f732 dd3c 1ca5 c33c 7694 6d3c 0815 7a3c
00000330: 2d41 5cbc de90 efbb 86c0 41bc f7a7 c6bb
00000340: 6ed4 483c b886 003b eece 4dbb aedb 2e3c
00000350: 7c4a 693b c16a e03b 16ef 583c 81db f9ba
00000360: b59c 9cbc a1e2 8ebc 028f 30ba 7fa5 3ebd
00000370: 180a 4ebd 4566 38bd 40e6 aabd bc08 6cbd
00000380: 7a67 11bd 6c27 0bbb b9e5 e4ba 91f4 0fbc
00000390: 157f a5bc da67 55bc 1238 97bc 1e0a 27bd
000003a0: 8200 edbc 1188 22bd 626e 40bc a4ac 97b8
000003b0: 5454 bcbb 7be8 0cbd c80c bebc 3a32 61bc
000003c0: d665 a7bd ec00 61bd d148 5fbd bd7a 34bc
000003d0: acb4 08bc e5b3 5abc 6e39 07bd a50d ffbc
000003e0: 8252 93bc f8eb 91bd f669 4dbd 4ee5 15bd
000003f0: 1eb2 ebbc ea3e 9fbc d4de 0abc 0e4c 95bd
-0.0146784745 -0.055503543 -0.03932575 -0.004780925 -0.009548395 -0.024537697 -0.009262759 -0.016486252
-0.0168949 -0.03423936 -0.019102268 -0.005788235 -0.013726703 -0.013431583 0.013358473 -0.008735172
-0.00024543237 0.00077610416 -0.017723797 -0.06802591 -0.058846667 -0.006525802 -0.026938442 -0.012884024
-0.00498229 -0.006192581 -0.00044126762 -0.006859788 -0.02406997 -0.051674835 0.0048957146 -0.017973898
-0.024899004 -0.0024730603 -0.017537039 -0.008768028 -0.01441115 -0.018592324 -0.009693345 0.0026530882
0.003052098 0.0008920538 -0.007429664 -0.017762551 -0.019602928 -0.035771016 -0.060393237 -0.0138573125
-0.0126385745 -0.028109685 -0.018113177 -0.005996303 -0.009402427 -0.00088185444 -0.026901165 -0.03292361
-0.029440347 -0.01561869 -0.042789564 -0.03639712 -0.013232436 -0.017413178 -0.011521395 -0.011639433
0.0069028973 -0.015313702 -0.021960944 -0.01876068 -0.018504865 -0.029169824 -0.031547 -0.036717802
-0.028135162 -0.0582732 -0.044827126 -0.021059114 -0.049034066 -0.07072136 -0.004957037 -0.027062062
-0.075410366 -0.018316597 -0.025126591 0.010921058 -0.03126015 -0.005308508 0.024222292 -0.010706864
-0.01860934 -0.011146349 -0.025551144 -0.030198641 -0.023385847 -0.036110636 -0.042487577 -0.036486864
-0.03606208 -0.020807132 -0.02645056 0.0011546385 -0.0022339812 -0.040906973 -0.014091583 -0.010226677
-0.03867268 -0.031234398 -0.0007329122 -0.03727339 -0.02528512 -0.0470809 -0.008904517 -0.038957193
-0.0051233517 -0.0016756982 0.003547783 0.009454554 0.0011854037 -0.012181621 -0.013183133 0.009462725
-0.009251698 -0.042178452 -0.020265924 -0.010055865 -0.04362712 -0.03957858 -0.0058475486 0.0053320974
-0.0008883826 -0.014197254 -0.009730916 0.0059287865 -0.026531193 -0.022410717 -0.0107769165 -0.021862358
-0.014906786 -0.02108165 -0.010175339 -0.0062359152 -0.01919992 -0.012391032 -0.009092076 0.0010866148
0.034224715 -0.0060771564 -0.0052559134 -0.0051606484 -0.032654263 0.022313647 0.01872543 0.021282284
0.02916644 0.000661172 0.0012849091 0.018161368 -0.020483505 -0.019244919 0.010441564 -0.005753163
-0.0013885414 0.029280603 0.015685182 -0.01703929 0.008878102 -0.0020514634 -0.007342264 0.0114376955
-0.014963514 -0.005145862 0.030837525 0.025432337 -0.0015913341 -0.0033015013 0.014368506 0.009741105
0.00089050736 0.004927665 0.0049244575 -0.010803459 0.031234875 0.008553365 0.023082992 -0.013322585
-0.0039775604 0.007863681 -0.008705593 0.03429897 0.0580426 -0.017680038 -0.020009946 0.01581186
0.021867217 0.009254775 0.004860018 0.013111711 -0.0155307455 -0.0045845695 -0.0064445557 0.019150676
0.027001841 0.023882441 0.014500728 0.015263803 -0.0134432735 -0.0073109707 -0.011825686 -0.0060625034
0.012257678 0.0019611549 -0.0031403857 0.010672493 0.0035597375 0.0068486636 0.013240596 -0.001906261
-0.019117692 -0.01744205 -0.0006735177 -0.046544548 -0.050302595 -0.045019407 -0.08344698 -0.057625517
-0.035499074 -0.0021233214 -0.0017463482 -0.0087863365 -0.020202199 -0.013025248 -0.018459354 -0.040781133
-0.028930906 -0.039680544 -0.011745067 -7.232398e-05 -0.0057473574 -0.0344014 -0.023199454 -0.013744885
-0.081737205 -0.05493252 -0.054512803 -0.011015591 -0.008343857 -0.013348554 -0.033013754 -0.031134436
-0.017983679 -0.071250856 -0.05014988 -0.036595635 -0.028771456 -0.01943918 -0.008475978 -0.07289897

momentum_buffer f4 [8, 8, 3, 3]
00000000: d14e bfbb 0075 313c a261 a73c e0b6 85b9
00000010: af0e a33c 1a5b c13c dda5 95bb b8b4 06bc
00000020: 40a2 d039 31d0 48bc ec73 dd3b 7526 983c
00000030: 50cc 223c 0047 673c 127a f83b 2152 07bc
00000040: 3060 08bb fd96 f53b d61b b3bb f2aa 253b
00000050: ef92 223c 2bc0 bf3b 94ce 493b 564e 9e3b
00000060: 202d 14bc 7ef5 cbbb 9612 74bb 0962 0e3b
00000070: 56aa 3d3c d533 cd3c 29a2 8cba e487 8a3a
00000080: ca33 073c 13bd e2bb 7052 993a e264 823c
00000090: 7641 b93a 2278 343b 0f9f 7d3b e4f6 5f3b
000000a0: a389 83bb c072 74b8 60f6 63bb fa83 8abc
000000b0: ea6e b63a 1e8e deba 4c8b 04ba 722c de3b
000000c0: 0d39 033c 68dd 323b b372 0c3b 669f 29bb
000000d0: 48cd 9abb c862 65bb e650 903b b6ec 19bc
000000e0: 47ab 2abb fc91 903b 1a5f 33bb 43cd 82bb
000000f0: 8858 3ebb a335 90bb 0090 1538 182e dd3a
00000100: f285 353c c1b1 093c 0ebd 6c3c 039c 0f3c
00000110: 3667 433c 2a79 b5ba d350 cfbb e0a0 11bc
00000120: c8a4 8a3a 4a93 d13b e544 88ba d290 4d3c
00000130: 7683 973b fc8e 713b 16ff 7a3c 9e4b 9c3b
00000140: c937 b03a 7080 ab3c 2550 eb3b e58d c8bb
00000150: ade0 a73c 280d 0fbc d362 83bc 8a28 043b
00000160: d410 363b b06c acb9 744c 243d fe38 0e3b
00000170: b519 40bc 3cb6 833c 70a6 83ba 429e 19bc
00000180: 55a9 2b3b 26a0 1dbc ca2e 80bb 4073 a33c
00000190: 899b e23c f725 103b 0fe5 dc3b 542c c2bc
000001a0: a278 93bc 04cf 07bb 6003 b0bb 0ef9 003c
000001b0: 8335 333d e5fe d13c 75fa 3d3b 06be 5c3d
000001c0: c2bc 9e3c 907c 7fba eabd 373c da4d 7bbc
000001d0: 2659 92bc 68d4 f23c 2946 723c 4063 13b8
000001e0: 7343 573c 8449 86ba f0aa 32bb 4ad0 13bb
000001f0: 2a05 ab3a a26d 213c 9830 5a3d 6b3d 7e3c
00000200: 4689 b3ba 2acc ff3c 3cdd 073b 62eb 10bc
00000210: 14ad 443b 5821 97bc 34f8 36bc 650e 8e3c
00000220: f590 af3b 7fb7 c0bb 97fe 2b3c e231 e3ba
00000230: 464e f7bb 0c35 643a 815c 3fbc 2bce 8ebc
00000240: 9734 843b eeec 8f3b b2a5 c4bb c050 213a
00000250: 8aa8 4dbc 92dd 45bc eafe cdbc e83c c2bc
00000260: 3da9 7ebc 594f bd3b ace7 c63b f6b8 333c
00000270: e075 b439 b824 443b 7bff 9cbc 10ea 5ebc
00000280: 4c9b cdbb 04e3 64bb c2bf 253b 8000 7339
00000290: 1010 b23b 5c0c 05ba 5a75 d6ba 230a 9ebb
000002a0: a8a4 913a 640d dc3a 40c6 f63a 767c acbb
000002b0: 8e83 8ebc 3fee 61bc 0a31 65bc aa3e 26bc
000002c0: 854e 28bc efb0 8cbc 3f9e 49bc 8868 2fbb
000002d0: a8d4 b7b9 a88b eabb 835d 99bc 48c0 28bb
000002e0: 08e0 e83a 808f 81ba dad3 19bc fcc7 47bc
000002f0: 5c89 5c3c cf9b cb3b cc90 3bbb 6c72 273c
00000300: 5060 583b 12e9 893c 46f4 5dbb 3e2c 553b
00000310: b952 e43b a80d 9b3a de17 a93b 4ae4 d5bb
00000320: 2c24 3ebb 0a83 87bb 0cc3 4b3c 4cfa a7bb
00000330: 80b5 bbbb 3e6f b83b 1ff9 0a3c 9801 2aba
00000340: ccc9 b8ba cdcc 9b3a 1c03 09bb 22f9 4fbc
00000350: 9241 04bc 8146 ab3b 9377 9e3b 0e22 edbb
00000360: 23f6 ed3b 72a8 343c f35c e93b c671 843c
00000370: 464d 463b 3c8f 283b 3c6e 203c fe12 093a
00000380: 8366 3d3b d4a2 ad3b 3925 3c3c aef5 6e3c
00000390: 5ba6 b1ba 7425 763a e4f0 cabb dac9 bb3c
000003a0: f477 813c 2d81 49bc a424 373b 4ea7 3abb
000003b0: b712 1c3c f44a 573b 8659 5a3b c99a 79bc
000003c0: 9a86 843c 2089 c83a 3af1 5ebc 20ca b03b
000003d0: 478a d93b ac57 53bc 0884 8a3b a308 b73b
000003e0: 5e84 9bbc 1275 353d 9dca 833c d258 cdbb
000003f0: ea70 bf3a 76c8 30ba b0d5 603b 6032 9939
-0.005838253 0.010831118 0.020432297 -0.0002550399 0.019904463 0.02360301 -0.0045668916 -0.008221798
0.00039793737 -0.012256668 0.0067582037 0.018573025 0.009936407 0.014116049 0.0075829113 -0.008259327
-0.0020809285 0.007494806 -0.005465965 0.0025278893 0.009922727 0.0058517656 0.0030793296 0.0048311157
-0.009043962 -0.0062243333 -0.0037242523 0.0021725914 0.011576256 0.02504913 -0.001072948 0.0010569063
0.008252094 -0.006919512 0.0011697542 0.015917245 0.0014133889 0.0027537425 0.0038699543 0.0034174258
-0.0040142103 -5.8281003e-05 -0.0034784302 -0.016908634 0.0013918553 -0.001697961 -0.0005056157 0.0067802006
0.008009207 0.0027292613 0.002143067 -0.0025882362 -0.0047241785 -0.0035001505 0.004404175 -0.009394815
-0.002604203 0.004411934 -0.0027369917 -0.0039917543 -0.0029044468 -0.0044009252 3.565848e-05 0.0016874699
0.011079298 0.008404196 0.014449371 0.008765223 0.011926463 -0.0013845314 -0.0063267737 -0.008888453
0.0010577673 0.006395732 -0.0010396509 0.012546735 0.0046238257 0.0036858907 0.015319606 0.0047697565
0.001344436 0.020935267 0.007181185 -0.006120431 0.020492876 -0.008731164 -0.016038334 0.0020165765
0.0027781026 -0.00032887375 0.040111974 0.002170145 -0.011724879 0.016078107 -0.0010044109 -0.0093761105
0.002619346 -0.009620702 -0.0039118277 0.019952416 0.027662056 0.0021995285 0.006741173 -0.023702778
-0.018001858 -0.0020722756 -0.005371496 0.007871879 0.043752205 0.025634238 0.0028988395 0.053892158
0.019377116 -0.0009746039 0.011214713 -0.0153383855 -0.017864775 0.029642299 0.014787235 -3.5139965e-05
0.01313864 -0.0010245298 -0.0027262531 -0.002255457 0.0013047804 0.009852799 0.053269 0.015517573
-0.0013697527 0.031225283 0.0020731231 -0.008845182 0.003001039 -0.018448517 -0.011167575 0.017340848
0.0053578564 -0.0058812494 0.010497711 -0.0017333592 -0.0075471727 0.00087054144 -0.0116797695 -0.017432293
0.0040345895 0.004392258 -0.0060011977 0.0006153695 -0.01255239 -0.012076752 -0.025145967 -0.023710683
-0.015543279 0.0057772812 0.006070098 0.010969391 0.000344201 0.0029929113 -0.019164791 -0.01360561
-0.0062746163 -0.003492535 0.0025291299 0.00023174472 0.0054340437 -0.0005075389 -0.0016361878 -0.0048229857
0.0011111693 0.0016788659 0.0018827394 -0.0052638603 -0.017396715 -0.013789712 -0.013988743 -0.010146776
-0.010272627 -0.017174212 -0.012305795 -0.0026765186 -0.0003506292 -0.0071577616 -0.018721348 -0.0025749374
0.0017766962 -0.0009884685 -0.009388888 -0.012193676 0.013460483 0.006213642 -0.0028620241 0.010220151
0.003301639 0.01683477 -0.0033867522 0.003252759 0.006967869 0.0011829631 0.005160316 -0.0065274583
-0.002901326 -0.004135494 0.0124366395 -0.0051262733 -0.0057284236 0.0056284955 0.008482247 -0.0006485223
-0.0014098226 0.0011886597 -0.0020906394 -0.012693675 -0.008072274 0.0052269106 0.0048360317 -0.0072367257
0.007262008 0.011026489 0.007121676 0.016167533 0.003025846 0.002572014 0.009791907 0.00052289653
0.0028900213 0.0052989516 0.011483484 0.014584942 -0.0013553606 0.0009389736 -0.006193267 0.022923399
0.015804268 -0.012298864 0.0027945423 -0.002848107 0.009525946 0.0032851072 0.003331752 -0.015234658
0.016177464 0.0015299655 -0.013607318 0.005395189 0.0066387984 -0.012899321 0.004227165 0.0055857464
-0.018984016 0.0443011 0.016087824 -0.0062666917 0.0014605795 -0.0006743738 0.0034307055 0.00029219966

momentum_buffer f4 [10, 128]
00000000: 8447 c23a 2511 cf3b 05d6 743b a1b9 8d3a
00000010: 17ad df3a e80d 8cb9 6c31 9f39 9b8c 01b9
00000020: cca5 e13a b77e b13a 5487 47bb b9fc 2dba
00000030: 9f00 43bb ad00 c0bb ac68 d03b 2411 453b
00000040: 0556 0fbb 50c0 503c dc86 873b 069a 8a3a
00000050: aed6 063c 1462 283c d194 6c3b 8f85 fb3b
00000060: 1222 063b 8c31 d53a 510e 983a ec6a 07bb
00000070: 0f4e 91ba 29c5 bdba ae3b 193b edf9 253b
00000080: 7ed5 c5ba b8e1 a23b a58f 1f3c ecc0 e43a
00000090: aa3d 363b fc71 073c 446d 313c 9c31 a539
000000a0: 79b0 6c3b e9df c1ba ca1e 4c3b fa0e 74b8
000000b0: f234 4dbb 207c 7d38 2297 f53a 690d 4e39
000000c0: 6561 2bbb 26c1 993b a52e eb3a 0018 863a
000000d0: 3550 01bc 54bd 3cb9 77d4 d03a 3b13 393b
000000e0: 5ff5 173c 8410 0e3c d266 0b3b eabd 18bb
000000f0: 3588 b53b 74db b539 0434 8839 4702 b1ba
00000100: 94a1 baba bcab 9e38 c5f3 233a bca2 643b
00000110: 71c6 d7bb 5420 b3bb 5a63 edbb 0aff 333c
00000120: 18a3 0ebb 1b76 caba fe7d 8a3a 68f7 443c
00000130: cefb 583b e448 ef3b 40c6 ed3b 15fa 273c
00000140: 8eaa 1e3a 8fc3 14bb 8a23 ab3b 7e9d 123c
00000150: ef98 dfbb 68ce 3139 665f 713c f477 3f3c
00000160: 9ef4 b2bb ae6a 553b 046a 593c dfd5 4c3c
00000170: b45d d1bb da40 f83b 74b7 893c e302 233b
00000180: 6fb3 b33a a151 883b 303a abbb 697e a13b
00000190: a7e8 263b fda6 f53a 0e78 9a3b 8c97 cb3b
000001a0: dbe8 f53a ee50 e4ba a030 98bb 1956 093c
000001b0: dff9 58ba c270 f1bb 8806 4139 34bd fc3b
000001c0: 7580 8bbb 7b51 853a e8e1 5dbb b736 e5bb
000001d0: 022f aa3b f4ba f93b 60da 01bb e938 f6ba
000001e0: a118 5b3b 6cc6 c73a 2bfc 09bb ffe4 ed3b
000001f0: 3e7a 10b7 d6fe d138 68cd 4fba 6994 063b
00000200: aedc 9b3a 2966 b239 4eea dd3a 745f 0339
00000210: 57e5 0e3a d8a1 f1b9 e564 05b9 0490 43b9
00000220: e301 083a 4f63 2d39 85eb e839 f336 583a
00000230: f906 d038 8194 443a 0548 2a3a 7fc8 2fbb
00000240: 9daf 793b 4565 213b 20f8 bbb9 d288 59ba
00000250: 8287 793b ae44 663a 2b81 633a a0f9 8fba
00000260: 30c3 993a 6c0b 9f39 8b46 c33a 1013 c337
00000270: b762 383b 6713 b03a 054c 233b c7e3 a93a
00000280: 0714 9d3b 7269 5c3b 3f4f 193b 48a5 d23a
00000290: de1a 9c3b b4b3 823b fbd0 483a 4515 bf39
000002a0: 88e0 b33b ceaa 723b 5be0 133a 3d7f 4838
000002b0: 72d8 f43a d709 273b 5ab7 9136 c627 8e37
000002c0: d8a2 6fb8 2ecc ab3b fc2f c03b 3227 283b
000002d0: 865c 1d3b 9f16 e43b 3ec8 b83b 7c97 513a
000002e0: 4e1f bb3b c948 103c 0c86 1f3c 90f6 103c
000002f0: 0e4a 913b a313 ea3b 6e4f 043c 7b51 9e3b
00000300: 2f9d 98b9 7ab3 cd39 70e3 62b9 c2e2 f039
00000310: 5601 d93a 60b4 0c3b 7669 5c3b 5fd7 753b
00000320: e9cd d13a b497 973b cf36 723b 62dc 0cb8
00000330: 35bd ce3a f069 fd3b 6ca4 103b 92e8 1b38
00000340: 2638 3d3b c14f b23b a05b 2d3b a8e7 053b
00000350: c753 543b 3984 fc3b c46d b63b 3802 2e3b
00000360: dc73 753b e161 0a3c 9ce1 bd3a d7ca 123a
00000370: 3457 2c3b 39f6 753b 68e5 d6b9 ea05 0e39
00000380: a748 2a3b a080 c43a 7637 923b c2d1 753a
00000390: 7e2e 7f3b ff67 903b 87c9 0f3a 0b7d 8b3a
000003a0: 5e44 163b 80fb 333a 54b7 293b 9c84 103a
000003b0: 5bc0 83b9 95ca b83a a6b5 323b 81bb 12bb
000003c0: 0c4d c73a ff22 3b3a cc34 033b 2cc2 093b
000003d0: 7b50 f73a 2bd2 0c3b c48c f339 413a a03b
000003e0: a22e 55b9 f853 9d39 d527 0a39 6bf4 7d3a
000003f0: 4c99 97b7 3d43 4e37 cb38 b43a b9ff 02b9
0.0014822339 0.0063191825 0.003735901 0.0010812768 0.0017065135 -0.00026713242 0.00030363665 -0.00012354778
0.0017215549 0.0013541792 -0.0030445652 -0.0006637085 -0.002975501 -0.0058594556 0.006360134 0.003007003
-0.002187134 0.012741163 0.0041359495 0.0010574467 0.008229895 0.01027729 0.0036099444 0.0076758335
0.0020467085 0.0016265376 0.0011600946 -0.0020663096 -0.0011085885 -0.0014478314 0.002338152 0.002532597
-0.0015093533 0.0049707554 0.009738837 0.0017452515 0.002780775 0.008266922 0.010829274 0.00031508214
0.0036115928 -0.0014791462 0.0031146281 -5.818808e-05 -0.0031312075 6.04355e-05 0.0018737058 0.00019650687
-0.002615058 0.0046922145 0.0017942978 0.0010230541 -0.007892658 -0.00017999607 0.001593246 0.0028240222
0.00927481 0.00867093 0.0021271002 -0.0023306557 0.005539919 0.00034686516 0.00025978696 -0.0013504707
-0.0014238828 7.566015e-05 0.0006254281 0.0034887036 -0.0065849354 -0.0054665003 -0.0072445096 0.010986099
-0.0021764692 -0.0015446575 0.0010566113 0.012021877 0.0033109072 0.0073023904 0.0072562993 0.010252495
0.00060526363 -0.002269957 0.0052227424 0.008948682 -0.006823651 0.00016956928 0.014732217 0.011686314
-0.0054612895 0.0032564807 0.013269905 0.012502163 -0.006389344 0.0075760903 0.01681111 0.0024873547
0.0013710092 0.0041601215 -0.0052254423 0.0049283993 0.0025468261 0.0018741783 0.0047140187 0.006213134
0.0018761413 -0.0017419138 -0.0046444684 0.008382344 -0.000827698 -0.007368178 0.00018408347 0.0077129845
-0.0042572566 0.0010171378 -0.0033856574 -0.006995048 0.005193592 0.0076211635 -0.0019814 -0.0018785271
0.0033431428 0.001524163 -0.0021054845 0.0072599645 -8.611531e-06 0.000100133635 -0.0007927031 0.0020535237
0.0011891329 0.0003402692 0.001693079 0.00012528693 0.00054510444 -0.00046087685 -0.00012721455 -0.00018650299
0.00051882694 0.00016535561 0.00044425964 0.0008247934 9.919512e-05 0.00074989354 0.0006495717 -0.0026822386
0.0038099058 0.0024627012 -0.00035852287 -0.0008298281 0.0038075154 0.0008784038 0.00086786103 -0.0010984428
0.0011731144 0.00030335353 0.0014898343 2.3254688e-05 0.002813501 0.0013433517 0.0024917137 0.001296156
0.004793647 0.0033632186 0.0023393182 0.0016070986 0.004763945 0.0039887074 0.0007660535 0.00036446206
0.0054894127 0.0037028077 0.00056410366 4.7802216e-05 0.0018680228 0.0025488043 4.3426817e-06 1.694624e-05
-5.71337e-05 0.005242846 0.005865095 0.0025658128 0.0024011447 0.0069607045 0.005639105 0.000799529
0.005710519 0.008806416 0.009736549 0.008847848 0.004433877 0.007143454 0.008075578 0.0048314906
-0.0002910881 0.00039234367 -0.00021637767 0.00045945315 0.0016556184 0.0021469817 0.0033632196 0.0037512404
0.00160068 0.0046262387 0.0036958938 -3.358385e-05 0.0015772941 0.007733576 0.002207066 3.7171478e-05
0.0028872578 0.0054416363 0.0026452318 0.0020432267 0.0032398568 0.007706192 0.0055672843 0.0026551615
0.003745309 0.008446188 0.0014486792 0.00055996835 0.0026297094 0.0037530793 -0.00040988182 0.00013544378
0.0025983246 0.0014991947 0.004462178 0.00093772647 0.0038937624 0.0044069286 0.0005485047 0.0010642124
0.0022928934 0.00068657845 0.0025896626 0.00055129244 -0.00025129583 0.001409846 0.0027268915 -0.0022389593
0.0015205457 0.0007138699 0.0020020483 0.0021020276 0.001886859 0.0021487575 0.0004645345 0.004889757
-0.00020330635 0.00030007935 0.00013175544 0.0009687605 -1.8071987e-05 1.2294212e-05 0.0013749836 -0.0001249303

momentum_buffer f4 [10]
00000000: f056 d43b e83a 3f3c 6f0c 7abc c6db 9fbc
00000010: 8c37 f03b db45 393c 154a 0cbc 89e6 89bc
00000020: b1a7 1c3c 85af a6bc
0.0064800903 0.011671759 -0.015261753 -0.019513976 0.0073308405 0.011308159 -0.008562584 -0.01683356
0.009561465 -0.020347366
